exploration/raghav/WindSpeed/lstm_model2.pt (torch, 204400 bytes, 9 tensors)

lstm.weight_ih_l0 f4 [256, 1]
0	0xbe31a7d0	-0.17349172
1	0xbf1aef29	-0.6052118
2	0x3fb342a3	1.4004711
3	0x3d5f2d0a	0.054486312
4	0x3dca0f22	0.098661676
5	0x3ddda406	0.108223006
6	0xbf1d3bc4	-0.6141932
7	0x3fae1bdb	1.3602251
8	0x3ee7f31f	0.45302674
9	0x3ebd112a	0.36927158
10	0x3e9c4f6e	0.3052935
11	0x3ff537c0	1.9157639
12	0x40019d2b	2.0252178
13	0x3ebd72f4	0.37001765
14	0x3eaf4f25	0.3424007
15	0x3ea6a8af	0.3255057
16	0x3ec9f5d8	0.39445376
17	0x3ddc293c	0.10750052
18	0x3f05a06f	0.5219793
19	0xbefee190	-0.49781466
20	0x3f53cf85	0.82738525
21	0x3f05a5e7	0.5220627
22	0xbe6eb96e	-0.23312923
23	0xbe9fd2a0	-0.31215382
24	0x3f6f644f	0.93512434
25	0x3eec3757	0.4613597
26	0x3f965f63	1.174786
27	0x3e6025fd	0.21889491
28	0x3ebd19e8	0.36933827
29	0xbf68b9f9	-0.9090877
30	0x3fc59955	1.5437418
31	0xbe56006d	-0.208986
32	0x3fc26a0e	1.5188615
33	0x3f52d49b	0.8235566
34	0x3d94bfde	0.07263158
35	0x3fa44646	1.2833946
36	0xbefb6091	-0.49097112
37	0x3ea713da	0.32632333
38	0x3ed2c94a	0.41169196
39	0xbda9fdf9	-0.083003946
40	0x3f077b4b	0.52922505
41	0xbeb3f999	-0.35151365
42	0x3ee5989d	0.44842997
43	0xbe6efb2a	-0.23337999
44	0xbe49b921	-0.19699527
45	0x3f6c5f86	0.9233326
46	0xbd0cc942	-0.034371622
47	0xbe94d3f8	-0.2906797
48	0xbf1af86c	-0.6053531
49	0x3e54a384	0.20765501
50	0x3e663664	0.22481686
51	0xbf48097f	-0.7813949
52	0xbdb770c8	-0.08957058
53	0x3f52a99c	0.82290053
54	0xbf2a65e8	-0.66561747
55	0x3ea47cae	0.32126373
56	0x3f983194	1.189013
57	0x3d81567c	0.06315324
58	0x3f0d1415	0.5510877
59	0x3f528fc3	0.8225061
60	0xbe724ced	-0.23662157
61	0x3f864d10	1.0492268
62	0x3e209e98	0.15685499
63	0x3ecd1382	0.40053946
64	0x3e0d431d	0.13795133
65	0xbeaca64e	-0.3372063
66	0x3fecadb2	1.8490508
67	0x3e49dbb3	0.19712715
68	0x3e7ff3dd	0.2499537
69	0x3e83c3de	0.25735372
70	0x3d2a7458	0.04161486
71	0x400e8d5a	2.2273774
72	0x3f078318	0.5293441
73	0x3e99c9a5	0.30036655
74	0x3ea0c255	0.31398264
75	0x3fa60fa3	1.2973522
76	0x3fcbe0c2	1.5927966
77	0x3f3945ae	0.7237195
78	0x3eeae408	0.458771
79	0x3ef1002a	0.47070438
80	0x3f2ad31b	0.6672837
81	0x3e904165	0.28174892
82	0x3f5df082	0.8669511
83	0xbe3b4c20	-0.18290758
84	0x3fb9d806	1.451905
85	0x3f037240	0.51346207
86	0xbd43d918	-0.04781446
87	0xbd999fa8	-0.07501155
88	0x3f9a373c	1.2048106
89	0x3f3bbf79	0.7333904
90	0x3f9dd560	1.2330742
91	0x3f02f1c5	0.5115016
92	0x3f03a2a3	0.5142004
93	0xbeac2299	-0.33620146
94	0x3fe652cb	1.7994016
95	0x3e767f42	0.24071983
96	0x3fe23ab8	1.767417
97	0x3f78ab5d	0.9713648
98	0x3ee89de3	0.45432958
99	0x3fb0436e	1.3770578
100	0xbe1bca61	-0.1521392
101	0x3ee424b7	0.4455926
102	0x3f65cbd0	0.8976412
103	0x3ee5f993	0.44916973
104	0x3f6436a7	0.8914589
105	0x3e1ae391	0.15125872
106	0x3f56f154	0.8396199
107	0x3d76f358	0.060290664
108	0xbeacde3e	-0.33763307
109	0x3f6fd88f	0.9368982
110	0x3e9ca131	0.3059173
111	0x3e5a582c	0.21322697
112	0xbe022fd0	-0.12713552
113	0x3eb3a97d	0.35090247
114	0x3f225ef2	0.63426125
115	0xbe8c272e	-0.27373642
116	0xbd587534	-0.05284615
117	0x3eeb6c12	0.4598089
118	0xbe2042a1	-0.15650417
119	0x3e8ccac7	0.27498457
120	0x3fc66a80	1.5501251
121	0x3ec39b5e	0.38204473
122	0x3f1b7412	0.60723984
123	0x3f437754	0.76353955
124	0x3eab2031	0.33422998
125	0x3f79f064	0.9763243
126	0x3ecc9a86	0.39961642
127	0x3ec5da32	0.38643032
128	0x40537da6	3.304544
129	0xc00a03c5	-2.15648
130	0xc015a8d2	-2.338429
131	0xc012342c	-2.2844343
132	0xbfc253a7	-1.5181779
133	0x3fe56314	1.7920861
134	0x404b5670	3.1771507
135	0x40245053	2.5674026
136	0xbfead953	-1.8347572
137	0xbfeb8fb9	-1.8403236
138	0xc0265587	-2.5989702
139	0x405376e5	3.3041317
140	0x4053c7f6	3.3090796
141	0xbf926284	-1.1436315
142	0xbfb99051	-1.4497167
143	0xbfdfeb4f	-1.7493685
144	0x404c8ebc	3.1962118
145	0xc03d3843	-2.956559
146	0x3f86aeae	1.0522058
147	0xc0519944	-3.2749796
148	0x40025d85	2.036958
149	0xbfb2a4e1	-1.3956567
150	0x3fcaa175	1.5830523
151	0xbfd00129	-1.6250354
152	0x40520cba	3.2820268
153	0xbfc42efa	-1.5326836
154	0xc02ddc22	-2.7165608
155	0xbfd909b7	-1.695609
156	0xbfe21104	-1.7661443
157	0xbfe1949b	-1.7623476
158	0x401e1e0d	2.4705842
159	0x4048cedb	3.1376255
160	0x4032a8f9	2.7915633
161	0xc045f5a1	-3.093117
162	0xc044ce59	-3.0750945
163	0xc01be131	-2.4356196
164	0x3ff4ec7d	1.913467
165	0xbfb56b1f	-1.4173316
166	0xc045dfbc	-3.0917807
167	0x3fe80184	1.8125463
168	0xc0576bd3	-3.365956
169	0x40216177	2.5215738
170	0xc0533ab5	-3.3004582
171	0xbf465ff3	-0.77490157
172	0xbf97b2c3	-1.1851429
173	0x402fc550	2.746418
174	0x403bfc32	2.9372678
175	0x40519f71	3.2753565
176	0xc024478b	-2.5668666
177	0x3fcdc8a3	1.6076854
178	0xc0037db5	-2.0545475
179	0xbfe4f249	-1.788644
180	0xbd9bdb9a	-0.07610245
181	0x3fe26833	1.7688049
182	0x402d9f7c	2.7128592
183	0xbf90937c	-1.1295009
184	0xc02f728e	-2.7413669
185	0x40527410	3.288334
186	0x4000ef19	2.0145934
187	0xc0043965	-2.066003
188	0xc05124bb	-3.2678668
189	0x401d40ed	2.4570878
190	0x3f97eba3	1.1868786
191	0x40571eef	3.361263
192	0xbe5f127b	-0.21784393
193	0xbf2560c5	-0.64600784
194	0x3fd178b0	1.6364956
195	0x3e32708c	0.17425746
196	0xbd41c87a	-0.04731033
197	0x3e5fdb0d	0.21860905
198	0xbeb19870	-0.34686613
199	0x3fe8855f	1.8165702
200	0x3eb14cec	0.34629
201	0x3e8a0a59	0.2696102
202	0x3ef6fd50	0.48240137
203	0x400efb68	2.2340946
204	0x4007950e	2.1184726
205	0x3f048ca7	0.5177712
206	0x3f0694f3	0.5257103
207	0x3f0ba123	0.5454275
208	0x3f1eb717	0.6199812
209	0x3df91f12	0.12164129
210	0x3f088cca	0.5333983
211	0xbf33f9e6	-0.7030319
212	0x3f8c4051	1.0957128
213	0x3ee1061c	0.43949974
214	0xbe4e8bd0	-0.20170522
215	0xbe7427c4	-0.23843294
216	0x3fa3cd55	1.2797037
217	0x3ed27f03	0.41112527
218	0x3fa887ea	1.3166478
219	0xbcc04404	-0.023469932
220	0x3e75a0f3	0.23987179
221	0xbf52ed1f	-0.8239307
222	0x40073d28	2.1131077
223	0xbe51f7e6	-0.20504722
224	0x3fd241c2	1.6426318
225	0x3f86418b	1.0488752
226	0xbccdbce0	-0.025114477
227	0x3fa289af	1.2698268
228	0xbedf1e13	-0.43577632
229	0x3e31b682	0.17354777
230	0x3ec5bc88	0.386204
231	0xbde0aca4	-0.109704286
232	0x3f223a5a	0.6337029
233	0xbe8a7a8b	-0.27046618
234	0x3f5e2764	0.86778855
235	0xbedbfc70	-0.42966032
236	0xbe585302	-0.21125415
237	0x3f9cb867	1.2243775
238	0xbe530c9e	-0.20610282
239	0xbe53e16e	-0.20691463
240	0xbef31573	-0.47477302
241	0x3e90c03d	0.28271666
242	0x3ea9c721	0.33159736
243	0xbed8531d	-0.4225091
244	0xbe2f63e0	-0.17127943
245	0x3f543973	0.8290016
246	0xbf153397	-0.58281845
247	0x3e23d43f	0.15998934
248	0x3fc9eb4a	1.577493
249	0x3e8f4401	0.2798157
250	0x3ef1cbe7	0.47225878
251	0x3f16dcdb	0.5893075
252	0x3df2cc52	0.11855377
253	0x3f85f6d2	1.0465949
254	0x3ee3d7e8	0.4450066
255	0x3f1273d5	0.57207996

lstm.weight_hh_l0 f4 [256, 64]
0	0x3da02d09	0.0782109
1	0x3ddc4309	0.107549734
2	0xbf5b8792	-0.8575374
3	0xbdd5ec7a	-0.10445495
4	0xbd2e11f9	-0.04249761
5	0x3dd92ed7	0.10604637
6	0x3d85b1ea	0.06528075
7	0x3f59f821	0.8514424
8	0xbda4d773	-0.08048906
9	0xbdbd26b7	-0.092359
10	0x3da131af	0.078708045
11	0x3fad6987	1.3547829
12	0x3f9c6ac5	1.2220083
13	0xbe14c09d	-0.14526601
14	0xbd6e4af0	-0.058176935
15	0x3d0fe4f5	0.03513046
16	0x3e3893c9	0.18025126
17	0xbde3ebca	-0.111289576
18	0x3dbb8aeb	0.09157356
19	0xbe0cde1c	-0.13756603
20	0x3f2f0d94	0.68380094
21	0xbddc2106	-0.10748486
22	0x3d691260	0.05690229
23	0x3cf7974a	0.030223507
24	0x3ec8c9e1	0.3921652
25	0xbe422e64	-0.18963009
26	0xbe11edef	-0.1425092
27	0xbe15c3ec	-0.1462552
28	0x3c24a168	0.010048248
29	0xbf4824b3	-0.78181
30	0x3f6cedcf	0.9255037
31	0xbdb9815c	-0.090578765
32	0x3fe09178	1.7544394
33	0xbf9240bb	-1.1426004
34	0xbe632952	-0.22183731
35	0xbf180eef	-0.59397787
36	0xbe32ea60	-0.1747222
37	0xbd61f845	-0.05516841
38	0xbe677a24	-0.22605187
39	0x3d137f4b	0.036010068
40	0xbd9aabb8	-0.07552284
41	0x3d714884	0.058907047
42	0xbd9f4f40	-0.077787876
43	0xbcbea0e9	-0.023270087
44	0xbd8403ee	-0.06446062
45	0x3eb82c87	0.35971472
46	0x3d85f05c	0.065399855
47	0xbe3a5d4c	-0.18199652
48	0x3d5830cf	0.052780923
49	0x3e1c1338	0.15241706
50	0x3d097a24	0.033563748
51	0xbcab5180	-0.020912886
52	0xbddf614b	-0.10907229
53	0x3ead5e47	0.3386099
54	0xbdcf3266	-0.101170346
55	0xbb127448	-0.002234714
56	0xbf92bcc0	-1.1463852
57	0xbe0cbf88	-0.13744938
58	0xbdabc26a	-0.08386691
59	0xbb247637	-0.0025094876
60	0xbc4f028f	-0.012634887
61	0xbd73baae	-0.059504203
62	0x3db8d0a7	0.09024172
63	0x398c4d9d	0.00026760707
64	0x3ede33a3	0.4339877
65	0x3ed3ca15	0.41365114
66	0xbe58746f	-0.21138166
67	0x3d60f41f	0.054920312
68	0x3e71b44b	0.23603933
69	0x3ce829a8	0.028340176
70	0x3c8a21ab	0.016861757
71	0x3e580f7a	0.21099654
72	0x3d6815bf	0.056661364
73	0xbe1ef6a3	-0.15523772
74	0x3df648d8	0.120256126
75	0x3e9e57ea	0.30926448
76	0x3ebae411	0.36502126
77	0x3e2820e3	0.16418795
78	0xbdb4f931	-0.08836592
79	0xbdccffd4	-0.10009733
80	0xbd420e06	-0.047376655
81	0xbe91630f	-0.28395888
82	0x3ce998a3	0.028515166
83	0xbe5e9162	-0.21735147
84	0x3e8ce175	0.2751576
85	0x3d307787	0.04308274
86	0xbea2d89f	-0.31805894
87	0x3e8770c0	0.2645321
88	0x3e92f9f5	0.28706327
89	0x3e235a84	0.15952498
90	0xbe1d6696	-0.15371165
91	0xbe72332a	-0.2365233
92	0xbd53bf9a	-0.051696397
93	0xbf0c1dc6	-0.5473293
94	0x3e89cfb3	0.26916274
95	0x3e00aa9b	0.12565081
96	0x3e91581d	0.28387538
97	0xbe6bdae6	-0.23032722
98	0xbc616a8d	-0.013758314
99	0xbe8beb8e	-0.2732815
100	0xbec89751	-0.39177945
101	0xbc73526c	-0.014851194
102	0xbd50ecb3	-0.051006984
103	0xbf0d5388	-0.55205584
104	0xbe7845b9	-0.24245347
105	0xbd9e722f	-0.077366225
106	0xbce64d50	-0.028113037
107	0x3e2e79a9	0.17038597
108	0x3e89e1ce	0.26930088
109	0x3e09f67e	0.13472936
110	0x3d800758	0.06251401
111	0x3e49c0eb	0.19702499
112	0x3ea3648d	0.31912652
113	0xbcfe8e65	-0.031073758
114	0x3dc4efc0	0.09616041
115	0x3ed933dd	0.4242238
116	0xbea09efb	-0.31371292
117	0x3e49f569	0.19722523
118	0xbeb76761	-0.3582106
119	0x3d78209d	0.060577977
120	0xbe8134d0	-0.25235605
121	0x3d9c7805	0.076400794
122	0xbe0a0ec5	-0.13482197
123	0xbc6024ff	-0.013680696
124	0xbe6264e7	-0.22108804
125	0xbd2df7d3	-0.04247267
126	0xbdf38914	-0.1189138
127	0x3c325ca2	0.010886343
128	0x3f388376	0.72075593
129	0x3cadde4b	0.021224162
130	0xbf2174bc	-0.6306875
131	0xbeb3a64c	-0.35087812
132	0xbe98538a	-0.29751235
133	0x3e2d4d42	0.16924003
134	0x3f293619	0.6609817
135	0x3f4bdb0a	0.796311
136	0xbe90a9f7	-0.28254673
137	0xbeee217a	-0.46509916
138	0xbe85f280	-0.26161575
139	0x3f284270	0.65726376
140	0x3f3198f4	0.6937401
141	0xbe840a6c	-0.257892
142	0xbe8a1c9d	-0.26974955
143	0xbec5d6b9	-0.38640383
144	0x3ed9a6ff	0.4251022
145	0xbed438d1	-0.41449597
146	0x3eb60fb7	0.35558864
147	0xbf0bcbb1	-0.54607683
148	0x3f0ef9ea	0.5585009
149	0xbe18af3a	-0.14910594
150	0xbd45506b	-0.048172396
151	0xbd8483ab	-0.06470426
152	0x3edb54a0	0.42838
153	0xbe4a22e8	-0.19739878
154	0xbf0338e4	-0.51258683
155	0xbeff03cd	-0.49807587
156	0xbe93d59e	-0.28873914
157	0xbfac0764	-1.3439755
158	0x3f874b61	1.0569879
159	0x3eb5ef4a	0.35534126
160	0x3f0e9807	0.55700725
161	0xbf0d83ef	-0.5527944
162	0xbedd1054	-0.4317652
163	0xbf064f8d	-0.52465135
164	0xbe4c1d46	-0.19933042
165	0xbe3423ca	-0.17591777
166	0xbeb754e1	-0.35806945
167	0x3e9fea54	0.31233466
168	0xbf1e31e6	-0.6179489
169	0x3f004c3a	0.5011631
170	0xbeef1b9c	-0.46700752
171	0x3e10b4a2	0.14131406
172	0x3e2f0d39	0.17094888
173	0x3f4885ad	0.78328973
174	0x3e833834	0.25628817
175	0x3f34cf2a	0.7062861
176	0xbd950726	-0.07276754
177	0x3e69f725	0.22848184
178	0xbeaeb825	-0.34124866
179	0x3ddaa4b0	0.10675943
180	0xbea224e9	-0.31668785
181	0x3f956386	1.1670997
182	0x3e2711fd	0.16315456
183	0xbd39b9d9	-0.045343254
184	0xbf141e20	-0.5785847
185	0x3f1aad31	0.6042052
186	0x3ea811f3	0.32826194
187	0xbeabbf4d	-0.33544388
188	0xbe9311ea	-0.28724605
189	0x3eb5528f	0.3541455
190	0x3d9a7286	0.07541375
191	0x3f2c9943	0.6742136
192	0x3e3573f4	0.17720014
193	0x3d4cd443	0.050007116
194	0xbe8fc5e4	-0.28080666
195	0xbe0aea92	-0.13566044
196	0xbcd37442	-0.025812272
197	0xbc0c6789	-0.008569607
198	0x3e6db9b9	0.23215379
199	0x3f000151	0.5000201
200	0x3c0324c0	0.008004367
201	0xbde0371d	-0.10948012
202	0xbd5995ae	-0.05312126
203	0x3eec9898	0.4621017
204	0x3e8a50dc	0.27014816
205	0x3db5bff2	0.08874501
206	0x3c5a9c88	0.013342984
207	0x3d44a33f	0.048007246
208	0x3d82212a	0.06353982
209	0xbe65db50	-0.22446942
210	0x3d52ba17	0.051447
211	0xbe81746c	-0.25284135
212	0x3e31d87d	0.1736774
213	0x3d263beb	0.040584486
214	0x3d76edee	0.0602855
215	0x3cdb64d1	0.026781471
216	0x3df2a07a	0.11847015
217	0xbd01a091	-0.03164727
218	0xbe9ba07b	-0.30395874
219	0xbe984c47	-0.29745695
220	0x3d5e5563	0.05428065
221	0xbeb952f8	-0.36196113
222	0x3f039d24	0.5141165
223	0xbb69c4ba	-0.0035670237
224	0x3f0863cb	0.5327727
225	0xbe8e3f7a	-0.27782804
226	0xbc89b941	-0.016811969
227	0xbe841a37	-0.2580125
228	0xbdbc2ebd	-0.09188602
229	0xbdb79ffc	-0.089660615
230	0xbdf911fd	-0.12161634
231	0x3db9cd53	0.090723656
232	0xbe64a82d	-0.22329779
233	0x3d51b765	0.05120029
234	0xbd7be223	-0.061494958
235	0x3df925df	0.121654265
236	0x3c453c0d	0.012038243
237	0x3e925097	0.2857711
238	0x3e0b455c	0.13600677
239	0x3e547f7a	0.20751753
240	0x3da30371	0.07959641
241	0xbd1cd0c1	-0.03828502
242	0x3de88d3f	0.113550656
243	0x3da5ca95	0.0809528
244	0xbdd8e711	-0.105909474
245	0x3db97dda	0.090572074
246	0x3c72a683	0.014810207
247	0x3e226b19	0.15861167
248	0xbdc992cb	-0.09842452
249	0x3ded0b39	0.11574406
250	0xbc9ed73e	-0.019389745
251	0xbcdedb38	-0.027204141
252	0xbe9542a1	-0.29152396
253	0x3deb19a7	0.11479502
254	0xbe06da49	-0.13169207
255	0x3d70f98a	0.05883173

lstm.bias_ih_l0 f4 [256]
0	0x3ea08300	0.31349945
1	0xbfb95067	-1.4477662
2	0xbf6f800b	-0.93554753
3	0xbf6128d5	-0.8795293
4	0xbfaf6d32	-1.3705199
5	0xbfbf3278	-1.4937277
6	0x3e5cc2f8	0.2155875
7	0xbf721a78	-0.9457164
8	0xbfa9c273	-1.3262466
9	0xbfacee39	-1.35102
10	0xbf66868f	-0.9004907
11	0x3f220094	0.6328213
12	0x3f2f7b9e	0.68548
13	0xbfc47506	-1.5348213
14	0xbfb539b4	-1.4158235
15	0xbfb6f480	-1.4293365
16	0xbed65f20	-0.4186945
17	0xbe118bb2	-0.14213446
18	0xbfbefe2e	-1.492132
19	0x3ee88475	0.45413557
20	0xbf876620	-1.0578041
21	0xbfc07ddb	-1.5038408
22	0xbfc94bec	-1.5726295
23	0xbfc7e739	-1.5617439
24	0x3ee89d1b	0.45432362
25	0xbfab9911	-1.3406087
26	0xbf69c7f6	-0.9132074
27	0xbfb8a3d3	-1.4424995
28	0xbfa70c86	-1.3050697
29	0xbed57467	-0.4169037
30	0xbf53ca3f	-0.8273048
31	0xbde7a8e1	-0.11311508
32	0xbee10726	-0.43950766
33	0xbecf6c93	-0.40512523
34	0xbdc6cb36	-0.09706728
35	0xbf8db3ed	-1.1070534
36	0xbfa94809	-1.3225108
37	0xbfbfa9ad	-1.4973656
38	0xbe12ad25	-0.14323862
39	0xbfb3a482	-1.4034579
40	0x3fb37cbc	1.4022441
41	0xbf283bb7	-0.6571612
42	0x3f16fdf0	0.5898123
43	0xbfc89382	-1.5670016
44	0xbfcf20f4	-1.6181931
45	0xbf324665	-0.69638664
46	0xbebddc7c	-0.3708228
47	0x3eee8a85	0.46590057
48	0xbf87df1f	-1.0614966
49	0xbfbcb168	-1.474164
50	0xbfa300f8	-1.2734671
51	0xbfc66c06	-1.5501716
52	0xbfe9b391	-1.8257924
53	0xbfd1ef6e	-1.6401193
54	0xbfa24d63	-1.2679867
55	0xbfc65b50	-1.5496616
56	0xbf057733	-0.5213501
57	0x3f284242	0.657261
58	0xbfa891d6	-1.3169506
59	0xbfa91ff4	-1.3212876
60	0x3ebfdb07	0.37471792
61	0xbf98f29b	-1.1949037
62	0xbfcd1cd4	-1.6024423
63	0x3f70cd3e	0.94063175
64	0xbefe7394	-0.49697554
65	0xbf5a506c	-0.85278964
66	0xbf80a1f0	-1.0049419
67	0xbf7c085e	-0.9845027
68	0xbf8391a2	-1.0278819
69	0xbf45c33d	-0.77251035
70	0xbeb9c062	-0.3627959
71	0xbf2733f7	-0.6531367
72	0xbf4d165d	-0.8011225
73	0xbf5ca86b	-0.86194485
74	0xbf875ea5	-1.0575758
75	0xbdc029d6	-0.093829796
76	0x3e5f2270	0.2179048
77	0xbf4ba7a2	-0.7955266
78	0xbf706eec	-0.93919253
79	0xbf85ed12	-1.0462973
80	0xbf2c0ae3	-0.6720411
81	0xbec582f1	-0.38576463
82	0xbf8e1b1a	-1.1102021
83	0xbf430534	-0.76179814
84	0xbf9089c2	-1.129204
85	0xbf779926	-0.9671806
86	0xbf5c65dc	-0.86092925
87	0xbf56693c	-0.83754325
88	0xbed26854	-0.4109522
89	0xbf4d7ac0	-0.80265427
90	0xbf5f0f4f	-0.87132734
91	0xbf76ea5d	-0.9645136
92	0xbf77bdf3	-0.96774215
93	0xbf0e70e1	-0.5564099
94	0xbf653038	-0.895267
95	0xbed2fcae	-0.41208404
96	0x3e2c2d10	0.16814065
97	0xbf3627fc	-0.7115476
98	0xbed9ecd7	-0.42563507
99	0xbf9aae00	-1.208435
100	0xbf66bda9	-0.9013315
101	0xbf6eaa96	-0.93229043
102	0xbefe23f1	-0.49636796
103	0xbf8370b3	-1.0268768
104	0xbe450407	-0.19239818
105	0xbf7cb568	-0.98714304
106	0xbe9f1ca2	-0.31076533
107	0xbf3fef1c	-0.74974227
108	0xbf544f8f	-0.82933897
109	0xbf874f0e	-1.0571
110	0xbf0798c1	-0.5296746
111	0xbe8b205d	-0.2717313
112	0xbf33a4be	-0.7017325
113	0xbf72f7a3	-0.94909114
114	0xbf57792d	-0.84169275
115	0xbf6182be	-0.8809012
116	0xbf582bb5	-0.8444169
117	0xbf7638b9	-0.961803
118	0xbf6e0f9d	-0.92992574
119	0xbf7b97e5	-0.9827865
120	0xbec3d76e	-0.38250297
121	0xbeb7c4ef	-0.35892436
122	0xbf600dab	-0.87520856
123	0xbf4f62b1	-0.81009966
124	0xbf0ec263	-0.5576536
125	0xbf1cebdc	-0.6129739
126	0xbf617b5a	-0.88078845
127	0xbe921a34	-0.28535616
128	0xbe151534	-0.1455887
129	0xbd070ccd	-0.032971192
130	0x3df9895c	0.12184402
131	0xbcea0e99	-0.028571414
132	0x3cd1e6ff	0.025622843
133	0xbdbba79e	-0.0916283
134	0xbacfee16	-0.0015863802
135	0xbdf469c5	-0.119342364
136	0xbb1a5dbb	-0.0023554403
137	0x3dffb6e7	0.12486058
138	0x3d1cc767	0.038276102
139	0xbce4cf5d	-0.02793091
140	0xbdb6ae30	-0.089199424
141	0xbc123720	-0.008924276
142	0x3cf90380	0.030397177
143	0x3ceab0d1	0.028648766
144	0x3d828666	0.06373291
145	0x3d7db1dc	0.061937198
146	0xbd2968e4	-0.041359797
147	0x3c88182e	0.016613092
148	0xbbcbf89b	-0.0062247044
149	0x3d4adafb	0.049525242
150	0xbb7013ab	-0.0036632817
151	0x3ca51320	0.020150721
152	0x3d22b7ff	0.039726254
153	0x3c9e201e	0.019302424
154	0xbc3657f7	-0.011129371
155	0xbd1856f2	-0.037192293
156	0xbd0af24b	-0.033922475
157	0xbd8f7b11	-0.07005895
158	0xbe09a437	-0.13441549
159	0xbd621372	-0.055194326
160	0xbd0756ef	-0.03304189
161	0x3d4c9088	0.049942523
162	0xbcc1ad19	-0.02364211
163	0xbdb0d4cd	-0.086343385
164	0x3989bb51	0.00026270238
165	0xbc21a296	-0.009865424
166	0xbcd9ab7c	-0.026571028
167	0xbad3fe72	-0.0016173853
168	0x3d00e577	0.031468835
169	0x3b8e3ea1	0.004340962
170	0xbbe2392f	-0.0069037895
171	0xbd8941e4	-0.06702021
172	0x3d8dd039	0.06924481
173	0xbd4c6b60	-0.04990709
174	0xbd8548a3	-0.06507995
175	0xbcd43c2f	-0.025907604
176	0x3cc7bb8f	0.024381427
177	0xbd238c8a	-0.03992895
178	0x3be0b981	0.0068580513
179	0xbd0f0282	-0.0349145
180	0x3d2d8290	0.042360842
181	0xbc834fff	-0.016029356
182	0xbd0d6c19	-0.034526918
183	0x3d82f32b	0.06394037
184	0x3db8534d	0.09000263
185	0xbd81bcd8	-0.06334847
186	0xbb0681d5	-0.0020524163
187	0x3b3eb63e	0.0029100324
188	0x3d5bbe7f	0.053648468
189	0xbd652ae7	-0.055949118
190	0x3a2134f9	0.0006149556
191	0xbd3272a0	-0.043566346
192	0x3eba0625	0.36332813
193	0xbfa612ea	-1.2974522
194	0xbf51373b	-0.817249
195	0xbf731752	-0.9495746
196	0xbfc1cfbd	-1.5141522
197	0xbfbd6523	-1.479649
198	0x3dfc7f3f	0.12328958
199	0xbf5bbe0c	-0.85836864
200	0xbf994aca	-1.1975949
201	0xbfb12b98	-1.3841429
202	0xbf56d1f0	-0.8391409
203	0x3f217b9b	0.6307923
204	0x3f65a431	0.8970366
205	0xbfd930d3	-1.6968025
206	0xbfc31950	-1.52421
207	0xbfa0e85a	-1.2570908
208	0xbeb9ca6a	-0.36287242
209	0xbc3ec21f	-0.011642962
210	0xbfc3144b	-1.5240568
211	0x3f20f128	0.62867975
212	0xbf8e0d46	-1.1097801
213	0xbfbbd34e	-1.467386
214	0xbfc3c4cf	-1.5294436
215	0xbfd22107	-1.6416329
216	0x3f165886	0.58728826
217	0xbfb45a39	-1.4090034
218	0xbf3ea6cf	-0.7447328
219	0xbfbc0473	-1.4688858
220	0xbfa68d4a	-1.3011868
221	0xbf1000a4	-0.5625098
222	0xbf3d3260	-0.7390499
223	0xbe405399	-0.1878189
224	0xbe120817	-0.14260899
225	0xbea725f8	-0.32646155
226	0xbe093dc8	-0.13402474
227	0xbf9b33c4	-1.2125173
228	0xbf9926eb	-1.1965002
229	0xbfb65530	-1.4244747
230	0xbd30b9e9	-0.043146048
231	0xbfbcf9c8	-1.4763727
232	0x3fc42c0d	1.5325943
233	0xbf5088b2	-0.8145858
234	0x3f09cc86	0.53827703
235	0xbfcab8e9	-1.583768
236	0xbfba369d	-1.4547917
237	0xbf2a5c79	-0.6654735
238	0xbeb98886	-0.36236972
239	0x3f11d73a	0.56969035
240	0xbf95f9e8	-1.171689
241	0xbfc25e9c	-1.5185122
242	0xbfaa8e23	-1.3324627
243	0xbfb2638e	-1.3936632
244	0xbfb84b3c	-1.439796
245	0xbfba5c81	-1.455948
246	0xbf8e965f	-1.113964
247	0xbfd8d396	-1.6939571
248	0xbef686aa	-0.48149616
249	0x3f2bfcd7	0.6718268
250	0xbf94c887	-1.1623696
251	0xbfab5bf2	-1.3387434
252	0x3ebf66a8	0.37383008
253	0xbf6d5845	-0.92712814
254	0xbfbf937c	-1.4966884
255	0x3f4e62ed	0.806197

lstm.bias_hh_l0 f4 [256]
0	0x3ea90d6f	0.33018062
1	0xbfa8c4b9	-1.3185035
2	0xbf6fd156	-0.93678796
3	0xbf4b03c1	-0.79302603
4	0xbfba26c1	-1.4543077
5	0xbfb4fb18	-1.4139128
6	0x3d7fe052	0.062469788
7	0xbf34c106	-0.7060703
8	0xbfa028a3	-1.2512401
9	0xbfb16037	-1.3857487
10	0xbf6fff5d	-0.9374903
11	0x3ee0a5b2	0.43876415
12	0x3f1cc2bf	0.6123466
13	0xbfcad8f7	-1.5847462
14	0xbfd254c4	-1.6432118
15	0xbfb72c18	-1.4310331
16	0xbea9d76d	-0.3317217
17	0xbe56c4e5	-0.20973547
18	0xbfcf1397	-1.6177853
19	0x3ee3df5e	0.44506353
20	0xbf939ab7	-1.153159
21	0xbfbacf7e	-1.4594572
22	0xbfbb4205	-1.4629523
23	0xbfc7a0af	-1.5595912
24	0x3e9f1403	0.31069955
25	0xbfb28f78	-1.3950033
26	0xbf418779	-0.7559734
27	0xbfafa2ad	-1.372152
28	0xbf9c84b4	-1.2227998
29	0xbed23f97	-0.4106414
30	0xbf226b58	-0.63445044
31	0xbe44de47	-0.19225417
32	0xbeaead5b	-0.34116635
33	0xbed1ca6f	-0.40974757
34	0xbe4a8840	-0.19778538
35	0xbf907e53	-1.1288551
36	0xbf9daea6	-1.2318923
37	0xbfcb9b82	-1.5906832
38	0xbe6ee256	-0.23328528
39	0xbfb076ee	-1.3786294
40	0x3f9ee15a	1.2412522
41	0xbf568479	-0.8379589
42	0x3f112335	0.56694347
43	0xbfdeee42	-1.741646
44	0xbfd08485	-1.6290442
45	0xbf453e18	-0.7704787
46	0xbe9d4662	-0.3071776
47	0x3f18b06e	0.5964421
48	0xbf8ffde5	-1.1249357
49	0xbfb82ec8	-1.4389277
50	0xbfac231c	-1.3448215
51	0xbfb6a9b8	-1.4270544
52	0xbfe425d3	-1.7824043
53	0xbfd3c272	-1.6543715
54	0xbf87198d	-1.0554672
55	0xbfcb8149	-1.589883
56	0xbf0cb905	-0.5496982
57	0x3f3d252c	0.73884845
58	0xbf8fb5bb	-1.1227335
59	0xbf9c5e5a	-1.2216294
60	0x3e1c0ec6	0.1524001
61	0xbf98b18e	-1.1929185
62	0xbfd35e42	-1.651314
63	0x3f4bab67	0.79558414
64	0xbf159e31	-0.58444506
65	0xbf631ae8	-0.8871293
66	0xbf7a866b	-0.97861356
67	0xbf83d2cc	-1.0298705
68	0xbf8c29b3	-1.0950226
69	0xbf5df14b	-0.8669631
70	0xbed9e3e4	-0.4255668
71	0xbefafcce	-0.49021
72	0xbf566847	-0.83752865
73	0xbf7543cb	-0.9580657
74	0xbf6cc269	-0.92484146
75	0xbc578090	-0.01315321
76	0x3d3a764b	0.04552297
77	0xbf589638	-0.84604216
78	0xbf693c4e	-0.9110764
79	0xbf656c76	-0.89618623
80	0xbf2b76b2	-0.6697799
81	0xbefdecc0	-0.49594688
82	0xbf9121b7	-1.1338414
83	0xbf45b0b4	-0.7722275
84	0xbf824c9b	-1.0179628
85	0xbf517c83	-0.81830615
86	0xbf468a3f	-0.77554697
87	0xbf53d02f	-0.8273954
88	0xbe9bbec9	-0.30418995
89	0xbf56aefb	-0.8386075
90	0xbf532352	-0.8247577
91	0xbf81f2eb	-1.0152258
92	0xbf5902e9	-0.84770066
93	0xbf1b71d3	-0.60720557
94	0xbf612103	-0.87940997
95	0xbeeb7738	-0.45989394
96	0x3d94a65f	0.07258295
97	0xbf3fa24f	-0.7485704
98	0xbeeb3b88	-0.45943856
99	0xbf9428d1	-1.1574956
100	0xbf6238ee	-0.8836812
101	0xbf6ae465	-0.9175475
102	0xbef0804a	-0.46972877
103	0xbf8348ec	-1.0256629
104	0xbe5cf081	-0.2157612
105	0xbf7c78d3	-0.98621863
106	0xbeb8c7d0	-0.36089945
107	0xbf6e7279	-0.9314342
108	0xbf519672	-0.81870186
109	0xbf782685	-0.96933776
110	0xbecd1454	-0.40054572
111	0xbe467432	-0.19380262
112	0xbf4f8351	-0.8105975
113	0xbf4e3d48	-0.8056226
114	0xbf4b5555	-0.7942708
115	0xbf6061df	-0.8764934
116	0xbf807588	-1.0035868
117	0xbf8098bd	-1.0046612
118	0xbf6c8db1	-0.92403704
119	0xbf5a19a7	-0.8519539
120	0xbf12e8cc	-0.5738647
121	0xbeca324d	-0.394915
122	0xbf72aeba	-0.9479786
123	0xbf447323	-0.76738185
124	0xbeb68bb1	-0.3565345
125	0xbf340962	-0.7032682
126	0xbf676f3a	-0.90404093
127	0xbe9f376a	-0.31096965
128	0x3d8717db	0.06596347
129	0x3db116ab	0.08646902
130	0xbd899c68	-0.06719285
131	0x3db232e2	0.087011114
132	0x3c3f70e4	0.01168463
133	0x3d553890	0.052055895
134	0xbd9b0d8a	-0.07570942
135	0x3d6636aa	0.056204475
136	0x3d3c2c7f	0.045940872
137	0xbda2d4a1	-0.07950712
138	0x3cd79c9a	0.02631979
139	0xbd50d57c	-0.050984845
140	0x3c7cd449	0.015431472
141	0x3d1b1127	0.037858155
142	0x3bd831de	0.0065977415
143	0x3c87c237	0.016572101
144	0xbe130441	-0.14357091
145	0x3c00bd27	0.007857597
146	0x3c844b02	0.016149048
147	0x3d80eee0	0.06295562
148	0xbd4a3261	-0.04936445
149	0xbc912447	-0.017717494
150	0xbd09a0c1	-0.033600572
151	0x3c9a131a	0.018807936
152	0xbdf2818f	-0.118411176
153	0x3caaffdb	0.020873955
154	0x3da555bc	0.08072993
155	0x3da1a710	0.07893193
156	0x3d9b679e	0.07588123
157	0x3dfcd947	0.1234613
158	0x3da02c48	0.07820946
159	0xbcb882dd	-0.022523338
160	0xbdae950a	-0.08524521
161	0x3d186a5a	0.0372108
162	0x3dcc48a0	0.099747896
163	0x3e1a8a61	0.1509185
164	0xbd3bff13	-0.045897555
165	0x3d2f3e6f	0.04278415
166	0x3dd2d223	0.10293987
167	0xbd2ade05	-0.04171564
168	0x3d4b0bbf	0.04957175
169	0xbd8000b7	-0.06250136
170	0x3db1a3e0	0.08673835
171	0x3db160ef	0.08661067
172	0xbd287853	-0.041130375
173	0xbc9117d4	-0.017711557
174	0xbbc8e064	-0.006130265
175	0xbd521878	-0.051292866
176	0x3d1d0537	0.03833505
177	0xbaaba32b	-0.0013094892
178	0x3d1eb79c	0.038749322
179	0x3da0899f	0.07838749
180	0xbd228db8	-0.039685935
181	0xbcfc0a69	-0.030766683
182	0xbd104214	-0.035219267
183	0xbd17a87e	-0.03702592
184	0xbcaa5598	-0.020792767
185	0xbc87944d	-0.016550208
186	0xbd3bad8a	-0.045819797
187	0x3d4abcae	0.049496345
188	0x3cd658e7	0.026165439
189	0xbbf5fb89	-0.007506792
190	0xbcf95fa5	-0.030441115
191	0xbd0fc543	-0.035100233
192	0x3eec7763	0.46184835
193	0xbf9ce6a8	-1.2257891
194	0xbf4dbccc	-0.80366206
195	0xbf6d5637	-0.9270968
196	0xbfc1dcb3	-1.5145477
197	0xbfa59cc3	-1.2938465
198	0x3dba43f2	0.09094991
199	0xbf5bef93	-0.85912436
200	0xbf9ac538	-1.2091436
201	0xbfaa6be1	-1.3314172
202	0xbf66a6a7	-0.9009804
203	0x3f03ab02	0.5143281
204	0x3f657a7e	0.89640033
205	0xbfbe3772	-1.486067
206	0xbfbf9549	-1.4967433
207	0xbfa2a127	-1.270543
208	0xbe909a16	-0.28242558
209	0xbcd892e1	-0.026437225
210	0xbfc574cc	-1.5426269
211	0x3f0414c7	0.51594204
212	0xbf8c9ac8	-1.0984735
213	0xbfb8b416	-1.4429958
214	0xbfc73feb	-1.5566381
215	0xbfb69ea8	-1.4267168
216	0x3f2ed985	0.6830066
217	0xbfcaf850	-1.5857029
218	0xbf64b1b4	-0.89333653
219	0xbfb4de24	-1.4130292
220	0xbfb44d6c	-1.4086127
221	0xbedd85f0	-0.4326625
222	0xbf5e1ee3	-0.8676588
223	0xbe903d30	-0.28171682
224	0xbd9534e6	-0.0728548
225	0xbe402b52	-0.18766525
226	0xbdfd0113	-0.123537205
227	0xbf834f82	-1.0258639
228	0xbf971c18	-1.1805449
229	0xbfd2b2d2	-1.6460822
230	0xbe1f56ec	-0.15560502
231	0xbfb49e2a	-1.4110768
232	0x3fc6f972	1.5544875
233	0xbf55d99a	-0.8353516
234	0x3f1418c4	0.5785029
235	0xbfc0fb0a	-1.5076611
236	0xbfd09193	-1.6294426
237	0xbf40b4f1	-0.75276095
238	0xbed48813	-0.41510066
239	0x3f296740	0.6617317
240	0xbf7f0c95	-0.99628574
241	0xbfb64d7d	-1.4242398
242	0xbf953607	-1.1657113
243	0xbfb8a5a8	-1.4425554
244	0xbfca8d14	-1.5824304
245	0xbfd6a4b1	-1.676901
246	0xbf851024	-1.0395551
247	0xbfd148a7	-1.6350297
248	0xbef8d423	-0.48599347
249	0x3f594250	0.8486681
250	0xbf98465a	-1.189647
251	0xbfa9bd81	-1.3260957
252	0x3eb57321	0.354394
253	0xbf648aea	-0.89274466
254	0xbfbff037	-1.4995183
255	0x3f6b4af0	0.9191122

lstm.weight_ih_l1 f4 [256, 64]
0	0xbd8864bd	-0.06659839
1	0xbe4c45f4	-0.1994856
2	0x3e9e8986	0.30964297
3	0x3dd5f346	0.10446791
4	0x3c84f45f	0.016229806
5	0xbe2a4caa	-0.16630808
6	0x3cd5d2fc	0.026101582
7	0xbe12f7ee	-0.1435239
8	0x3dbc92bb	0.09207674
9	0x3e7489a3	0.23880629
10	0x3e4b5cce	0.19859621
11	0xbd478b80	-0.048717022
12	0xbe500d69	-0.20317616
13	0x3da5e41d	0.0810015
14	0x3dcb373d	0.09922645
15	0x3d25a38b	0.04043917
16	0xbe88090b	-0.265694
17	0xbcfe7fb9	-0.031066762
18	0xbe5ee1cc	-0.21765822
19	0xbd7083f2	-0.058719583
20	0xbe4f3352	-0.20234421
21	0x3e8b1e4e	0.27171558
22	0x3da97e02	0.08275987
23	0xbda96227	-0.08270674
24	0xbe4db13f	-0.20087145
25	0x3e0a656c	0.13515252
26	0x3eb51924	0.35370743
27	0x3c47d4d8	0.012196742
28	0x3e6fa3bb	0.23402302
29	0xbe610829	-0.21975769
30	0xbe9175bf	-0.28410146
31	0xbdf1c6d1	-0.11805499
32	0x3d348d89	0.04408029
33	0x3d85ec5e	0.06539224
34	0x3db95d0b	0.0905095
35	0x3e905faa	0.28197986
36	0x3e0ad91b	0.13559382
37	0x3e452a7a	0.19254485
38	0x3de05479	0.10953612
39	0x3d3e938f	0.04652744
40	0x3e14020f	0.1445391
41	0x3ba6f1ed	0.005094758
42	0x3cff99dd	0.031201297
43	0xbe44e2bc	-0.19227117
44	0xba204112	-0.0006113212
45	0xbe37c6bf	-0.1794691
46	0xbe486d52	-0.19572952
47	0x3dba6bf9	0.091026254
48	0x3d0dfabf	0.03466296
49	0xbe31d9c8	-0.17368233
50	0x3e2fb633	0.17159347
51	0xbe0222bb	-0.12708561
52	0x3dd15f80	0.10223293
53	0xbe4d295e	-0.20035312
54	0x3ce34ee4	0.027747579
55	0x3cb4ecde	0.022085603
56	0x3eafed22	0.34360605
57	0xbe09dc29	-0.1346289
58	0xbdf58153	-0.11987557
59	0x3e833ea2	0.25633723
60	0xbbfba780	-0.0076798797
61	0xbe3d677f	-0.18496512
62	0xbe0dc8da	-0.1384615
63	0xbd6a34e5	-0.05717935
64	0xbb044a52	-0.00201859
65	0xbeb1029e	-0.3457231
66	0x3f0732b7	0.5281176
67	0x3da428d2	0.08015598
68	0xbe417411	-0.18891932
69	0x3e26e4c9	0.16298212
70	0x3dca18c6	0.098680064
71	0xbefa7e60	-0.4892454
72	0xbde7e393	-0.11322703
73	0x3e1785c2	0.14797118
74	0x3e486f4f	0.19573711
75	0xbe4d8526	-0.20070323
76	0xbd441a1b	-0.04787646
77	0xbe4b7320	-0.19868135
78	0x3d1abbed	0.037776876
79	0xbcf9d2fa	-0.03049611
80	0xbe7f88b7	-0.24954496
81	0xbe2d44c6	-0.16920766
82	0xbeb5cc74	-0.35507548
83	0xbd20c90c	-0.039254233
84	0xbf0f0b11	-0.5587626
85	0x3bc9d0b9	0.006158915
86	0x3dee413c	0.11633536
87	0xbe7d7a77	-0.24753748
88	0xbdc90f8f	-0.09817421
89	0xbe6b493d	-0.22977157
90	0x3e598ee9	0.21245922
91	0x3ea4ef5b	0.32213864
92	0xbd44a3eb	-0.048007887
93	0xbf112de4	-0.5671065
94	0xbeeeb023	-0.46618757
95	0x3d1b00e6	0.037842654
96	0xbe5d4179	-0.21607007
97	0xbd57b9c1	-0.052667383
98	0xbd99545a	-0.07486792
99	0x3ea5efcf	0.32409522
100	0x3e888984	0.26667416
101	0xbe30842a	-0.17237917
102	0x3db945df	0.0904653
103	0x3e2ee79b	0.17080538
104	0x3b9df3a6	0.004820305
105	0xbd648906	-0.05579474
106	0x3c880f02	0.016608719
107	0xbe6d1d04	-0.231556
108	0xbcb611d0	-0.02222529
109	0xbe931d5c	-0.28733337
110	0x3e7d38ad	0.24728651
111	0x3df39227	0.11893111
112	0xbe16ae81	-0.14715005
113	0x3e102161	0.14075233
114	0xbe0cea40	-0.13761234
115	0xbe28f383	-0.16499142
116	0x3e869f3b	0.26293358
117	0xbebb9d70	-0.36643553
118	0x3ea14499	0.31497648
119	0xbd180c4c	-0.037121102
120	0x3e8748c2	0.26422697
121	0x3bef637e	0.0073055616
122	0xbd4ddf2a	-0.050261654
123	0x3e9548ba	0.29157048
124	0xbe35f8eb	-0.17770736
125	0xbe2132f1	-0.15742089
126	0x3e067113	0.13129072
127	0x3d8b833c	0.0681214
128	0x3c0c9f99	0.008582973
129	0xbcbd093f	-0.023075698
130	0x3d871b54	0.06597009
131	0xbd8093e2	-0.062782064
132	0xbcfbd9a9	-0.030743437
133	0xbdacc59a	-0.08436127
134	0x3da2c4a9	0.07947666
135	0xbde036d4	-0.10947958
136	0xbc95fa42	-0.018307809
137	0x3ddfdece	0.109311685
138	0x3d5867fc	0.052833542
139	0xbd8e018a	-0.06933887
140	0x3d504eef	0.050856527
141	0x3df57720	0.11985612
142	0x3e4ec512	0.20192364
143	0x3e4fbb20	0.20286226
144	0xbc9ac935	-0.018894771
145	0x3ad1a011	0.0015993138
146	0xbddb1e6d	-0.10699163
147	0x3c40c51a	0.011765743
148	0xbe0a86d5	-0.13527997
149	0x3cd6fa19	0.026242303
150	0x3dc22c3d	0.09481094
151	0x3d8726be	0.06599186
152	0xbe1c71c4	-0.15277773
153	0x3e01fed7	0.1269487
154	0x3e52ab21	0.20573093
155	0x3da5017f	0.08056926
156	0x3d99b438	0.07505077
157	0x3df657f3	0.12028494
158	0xbdb25418	-0.08707446
159	0x3d1b7f20	0.037963033
160	0xbe2dd666	-0.16976318
161	0x3dc4988a	0.09599407
162	0x3deb7ec9	0.11498792
163	0x3e0e6058	0.1390394
164	0x3d99f7b1	0.075179465
165	0xbc335818	-0.010946296
166	0x3d48d6cc	0.04903297
167	0xbd907ada	-0.07054682
168	0xbd9261fe	-0.07147597
169	0xbd7fdacd	-0.062464524
170	0x3db3f439	0.08786816
171	0xbdf28b52	-0.118429795
172	0x3d87cbc6	0.066306636
173	0xbd82aae7	-0.06380253
174	0xbe2aa73e	-0.1666536
175	0x3cfda269	0.030961232
176	0xbcc24b61	-0.023717584
177	0xbdaca01b	-0.08428975
178	0xbd435a65	-0.04769363
179	0xbdf88f0b	-0.12136658
180	0x3c99fcd7	0.018797321
181	0x3ce36c91	0.02776173
182	0x3e0f093c	0.13968366
183	0x3e1c17c1	0.15243436
184	0xbcc4f0a0	-0.02404052
185	0xbda30742	-0.07960369
186	0xbcb19744	-0.021678574
187	0xbca2edff	-0.019888876
188	0x3d6d0e53	0.05787499
189	0xbdcd475d	-0.10023377
190	0xbe14cb46	-0.14530668
191	0xbe1b1278	-0.15143764
192	0xbcc45c5c	-0.023969822
193	0xbc5f8155	-0.013641675
194	0x3ebabd40	0.3647251
195	0x3cb68cbf	0.02228391
196	0x3c32d9d0	0.010916188
197	0xbcba308c	-0.022728227
198	0x3ccd3fb1	0.025054784
199	0xbe62ab84	-0.2213574
200	0x3ceaf264	0.028680034
201	0x3c3df8c6	0.011594957
202	0x3d46afd5	0.04850753
203	0x3cf25d0c	0.029585384
204	0x3db2167b	0.08695694
205	0xbd98ec13	-0.074669026
206	0x3e1accff	0.15117262
207	0xbd4177bc	-0.04723333
208	0x3c8955be	0.016764518
209	0xbe01a2e4	-0.12659794
210	0xbe7c100f	-0.24615501
211	0x3d6ece8c	0.058302447
212	0xbdf5b822	-0.11998011
213	0x3da1fb72	0.079092875
214	0xbd89d06f	-0.06729209
215	0xbdcbe65d	-0.09956048
216	0xbe42c9b8	-0.19022262
217	0x3d01090c	0.03150277
218	0x3e847b82	0.2587548
219	0xbd2b70f3	-0.041855764
220	0xbc83b937	-0.016079528
221	0xbe9a2af6	-0.30110902
222	0xbe8aa5ff	-0.2707977
223	0xbca001f9	-0.01953219
224	0xbd320b8d	-0.043468047
225	0xbdedd40c	-0.1161271
226	0xbdf11731	-0.117720015
227	0x3e354089	0.177004
228	0x3ca60e92	0.02027062
229	0x3dd49f6e	0.10381971
230	0x3dda98bd	0.10673664
231	0xbdb7b975	-0.0897092
232	0xbd5dd5eb	-0.054159086
233	0x3de58a6f	0.11208045
234	0xbdf86a33	-0.12129631
235	0x3d4c3674	0.049856618
236	0xbde85115	-0.1134359
237	0xbc21847f	-0.00985825
238	0xbdc0cfd5	-0.09414641
239	0x3e1fdacc	0.15610808
240	0xbdae4e62	-0.08511044
241	0x3c469fec	0.012123089
242	0x3e006f1c	0.12542385
243	0x3de1a67a	0.11018081
244	0x3db52088	0.088440955
245	0xbe339fc6	-0.17541417
246	0xbd37f68d	-0.044912864
247	0x3d948ba1	0.072531946
248	0x3e73c68e	0.23806211
249	0x3d40be85	0.047056694
250	0xbde4457f	-0.11146068
251	0x3d8e0dce	0.06936227
252	0xbdf4122b	-0.11917528
253	0xbe0fdc4e	-0.14048883
254	0xbd75b1dd	-0.059984077
255	0xbcb4aaa1	-0.022054018

lstm.weight_hh_l1 f4 [256, 64]
0	0x3ec6ef42	0.38854414
1	0x3e42e561	0.19032814
2	0x3e1e0dde	0.15434977
3	0x3ef3ac57	0.47592422
4	0xbd0875b2	-0.033315368
5	0x3ea8a5bd	0.32938948
6	0x3d54e2a2	0.051973946
7	0xbe76aff1	-0.24090554
8	0x3e05e76b	0.1307656
9	0x3e47929d	0.19489522
10	0xbe10ba59	-0.14133586
11	0x3ef872d5	0.4852511
12	0x3f2fed4b	0.68721455
13	0xbe0f343d	-0.13984771
14	0x3ebb3dca	0.3657058
15	0xbeb26410	-0.34841967
16	0x3c9d7cd7	0.019224567
17	0x3dae4c7a	0.085106805
18	0x3ea7d779	0.3278158
19	0x3eb3208a	0.34985763
20	0xbee3eef6	-0.4451825
21	0x3eab80d0	0.33496714
22	0x3ea00313	0.31252345
23	0xbe5dadff	-0.21648405
24	0x3c846937	0.016163452
25	0x3e17f25b	0.14838545
26	0xbe141865	-0.14462431
27	0x3f278efa	0.6545254
28	0xbe26df72	-0.16296175
29	0x3eca9290	0.39564943
30	0x3e14cbcc	0.14530867
31	0x3e56bca6	0.20970401
32	0x3e1010bf	0.14068888
33	0x3f555d27	0.83345264
34	0x3effd379	0.49966028
35	0x3e394e30	0.18096232
36	0x3ee089be	0.4385509
37	0x3d651260	0.055925727
38	0xbe3be9b5	-0.18350871
39	0xbc78d8d9	-0.015188419
40	0xbf45e70b	-0.7730567
41	0x3ec08f30	0.37609243
42	0x3e6d2c4c	0.23161429
43	0xbe95a7b2	-0.29229504
44	0x3ea52c03	0.3226014
45	0xbd1ea8bb	-0.038735133
46	0xbf89021a	-1.0703766
47	0xbf277785	-0.6541675
48	0x3e4421ea	0.19153562
49	0x3e793241	0.24335577
50	0xbe4c5981	-0.19956018
51	0x3d337328	0.043810993
52	0xbe1b3819	-0.15158118
53	0xbdee2c13	-0.116295
54	0xbed01916	-0.4064414
55	0xbea6154c	-0.32438123
56	0xbe8eb534	-0.27872622
57	0xbe9c5903	-0.3053666
58	0x3e54da2a	0.20786348
59	0x3e9e3264	0.3089782
60	0xbe825b2d	-0.25460187
61	0x3e23e67a	0.16005889
62	0xbd011f86	-0.031524204
63	0x3dcb056e	0.09913145
64	0x3d959d44	0.07305387
65	0x3e8062b5	0.25075307
66	0xbdbfb677	-0.09360974
67	0x3e89efbc	0.26940715
68	0x3da60048	0.081055224
69	0xbd7abe96	-0.061216913
70	0x3dc6ac51	0.097008355
71	0xbee68467	-0.4502289
72	0x3db29d4f	0.087214105
73	0xbbd5782c	-0.0065145697
74	0xbc5b3aea	-0.013380745
75	0x3e90d493	0.2828718
76	0x3f7d759e	0.99007595
77	0x3c6f8af6	0.014620533
78	0x3e559834	0.20858842
79	0xbe971eb4	-0.29515612
80	0x3d09d40c	0.03364949
81	0x3e218735	0.15774234
82	0x3e6dba42	0.23215583
83	0x3e000bf9	0.12504567
84	0xbe8a6691	-0.27031377
85	0x3e4a76a3	0.19771819
86	0x3eb618e1	0.35565856
87	0xbd8bb628	-0.06821853
88	0x3e6a6279	0.22889127
89	0xbd27f480	-0.041004658
90	0x3dd2450d	0.10267077
91	0x3f3bc5a7	0.7334847
92	0xbe7cb313	-0.24677686
93	0x3f2f8be1	0.68572813
94	0xbd9d6960	-0.07686114
95	0x3e385065	0.17999418
96	0x3e4e893c	0.20169538
97	0x3f9efd2f	1.2421016
98	0x3f036e4a	0.5134016
99	0x3e352d24	0.17693001
100	0x3ed614ab	0.41812643
101	0xbd9bd5ad	-0.07609115
102	0x3c7e4757	0.015519938
103	0x3db3aff5	0.087737955
104	0xbf590e5a	-0.84787524
105	0x3ef50808	0.4785769
106	0x3e99d117	0.30042335
107	0xbe764de7	-0.24053155
108	0x3dc4e8e7	0.09614735
109	0x3e4111d3	0.18854456
110	0xbf9f40e3	-1.2441677
111	0xbf19275f	-0.598257
112	0x3c9c573a	0.019084562
113	0x3e404ab6	0.187785
114	0x3d42ec18	0.047588438
115	0xbe07b3fc	-0.13252252
116	0x3c978dc2	0.018500213
117	0xbda1089d	-0.07862971
118	0xbe88daf0	-0.26729536
119	0xbe8e6826	-0.27813834
120	0xbe1559e8	-0.14585078
121	0x3da2b2a0	0.07944226
122	0x3e80948c	0.25113332
123	0x3f0aaf1b	0.5417344
124	0xbeb02692	-0.34404427
125	0x3dabcb37	0.083883695
126	0x3e0d42f7	0.13795076
127	0x3c6b8709	0.014375457
128	0x3d921207	0.07132345
129	0x3d0c033c	0.034182772
130	0x3dab132f	0.08353268
131	0x3e489aa0	0.19590235
132	0xbd6a8f5e	-0.05726563
133	0x3ddf5317	0.1090452
134	0xbd1e9c43	-0.03872324
135	0xbe567952	-0.20944718
136	0x3e26c3fc	0.162857
137	0x3e7a8ced	0.24467821
138	0x39a9d93c	0.00032396044
139	0x3ec8cb91	0.3921781
140	0x3f0d3bea	0.55169547
141	0xbe491471	-0.19636704
142	0x3dad5ad0	0.08464587
143	0xbeb9a250	-0.36256647
144	0x3dc23bd6	0.09484069
145	0x3e06854f	0.1313679
146	0x3ed04522	0.40677744
147	0x3e8acc70	0.27109098
148	0xbe2303fb	-0.15919487
149	0x3e3f3548	0.18672669
150	0x3df23c95	0.11827961
151	0xbded4464	-0.1158531
152	0x3c898263	0.016785806
153	0x3e31176c	0.17294091
154	0xbdcae0cf	-0.0990616
155	0x3eeec014	0.4663092
156	0xbd945f84	-0.07244781
157	0x3e8e034e	0.27736896
158	0x3debd060	0.11514354
159	0x3e8b3d1b	0.27195057
160	0x3d5055fd	0.050863255
161	0x3f469b7f	0.7758102
162	0x3ef0573d	0.46941558
163	0xbccd95aa	-0.02509578
164	0x3ed4a925	0.41535297
165	0x3dcf5b24	0.101248056
166	0x3c9eec4c	0.019399785
167	0x3c6a0e3f	0.014285623
168	0xbed740b0	-0.4204154
169	0x3e52cc0f	0.20585655
170	0x3e33e41c	0.17567486
171	0xbdcf8423	-0.10132625
172	0x3e5581c6	0.20850286
173	0xbd7e2b1d	-0.062052835
174	0xbf5d4907	-0.86439556
175	0xbf1d0d55	-0.6134847
176	0xbcb68e48	-0.022284642
177	0x3ded65ad	0.11591659
178	0xbdea87a7	-0.11451655
179	0x3e36bcea	0.17845502
180	0xbe448773	-0.19192295
181	0xbdedad56	-0.11605327
182	0xbe1b08c8	-0.15140069
183	0xbea331a9	-0.31873825
184	0xbe731ee4	-0.23742253
185	0xbe3e77cc	-0.18600386
186	0x3e816949	0.2527564
187	0x3e562d9e	0.20915839
188	0xbe415d52	-0.18883255
189	0x3ddaea63	0.10689237
190	0xbdf3c46d	-0.119026996
191	0x3e17f1fd	0.14838405
192	0x3deb9320	0.11502671
193	0x3d9ef1a6	0.077609345
194	0x3cf5a19b	0.029984286
195	0x3ec3d60c	0.38249242
196	0xbdeb9ffe	-0.115051255
197	0x3e8df69a	0.27727205
198	0xbe08cd41	-0.13359548
199	0xbe4f6749	-0.20254244
200	0x3d9ba410	0.07599652
201	0x3daf8198	0.0856964
202	0xbc743caa	-0.014907042
203	0x3ef1a47c	0.47195804
204	0x3f1adfa5	0.60497504
205	0xbd045360	-0.032306075
206	0x3e853d1b	0.26023182
207	0xbec52dd8	-0.38511539
208	0x3d40592a	0.046960033
209	0xbdd1ff2b	-0.102537476
210	0x3ed982bb	0.42482552
211	0x3e3f1339	0.18659677
212	0xbe8c5ba7	-0.27413675
213	0x3e2d0752	0.16897324
214	0x3ebc82ae	0.3681845
215	0x3c5fb5cf	0.013654186
216	0x3d133e3b	0.03594802
217	0x3e878221	0.26466468
218	0xbe025c14	-0.12730438
219	0x3f136935	0.5758241
220	0xbd5d0567	-0.05396023
221	0x3ec2d6f6	0.38054627
222	0x3e1d9d7c	0.15392107
223	0x3e25873f	0.16164874
224	0x3d66ecb2	0.056378074
225	0x3f3557c7	0.7083706
226	0x3f20a867	0.6275696
227	0x3e23ca69	0.15995182
228	0x3eb7c317	0.3589103
229	0x3e491a1f	0.1963887
230	0xbd4f83cd	-0.050662804
231	0x3d2fdda0	0.042935967
232	0xbf0d171a	-0.55113375
233	0x3e9cde78	0.3063848
234	0x3ecf3f28	0.40477872
235	0xbebef096	-0.37292928
236	0x3edfc442	0.4370442
237	0xbd03c417	-0.032169428
238	0xbf4ac52c	-0.7920711
239	0xbef1a455	-0.47195688
240	0x3d8ab072	0.067719355
241	0x3eabe0c5	0.33569923
242	0xbe02a1c8	-0.12757027
243	0xbb5da7dc	-0.0033821976
244	0xbe5e4fc3	-0.21710114
245	0xbca08a41	-0.019597175
246	0xbe9e9453	-0.30972537
247	0xbebbea70	-0.367023
248	0xbe14766a	-0.14498296
249	0xbdc85bb0	-0.09783113
250	0x3e9b5a4c	0.3034233
251	0x3ed9896d	0.4248766
252	0xbe95879e	-0.2920503
253	0x3d7636b7	0.060110774
254	0x3d0dd39f	0.034625646
255	0x3e4eedd0	0.20207906

lstm.bias_ih_l1 f4 [256]
0	0xbfbb9288	-1.4654093
1	0xbfa227b6	-1.2668369
2	0xbfbc5c93	-1.4715751
3	0xbfb50a7d	-1.4143826
4	0xbfa771ba	-1.3081582
5	0xbf9acce2	-1.2093775
6	0xbfb662de	-1.4248922
7	0xbfa3de26	-1.2802169
8	0xbfacae62	-1.3490717
9	0xbfb1f70f	-1.3903521
10	0xbfa8e52c	-1.3194938
11	0xbf977cfa	-1.1835015
12	0xbd990030	-0.07470739
13	0xbfa6ca25	-1.303044
14	0xbf9f98b4	-1.2468476
15	0xbfa69e9c	-1.3017154
16	0xbfb94c1e	-1.4476354
17	0xbf944810	-1.1584492
18	0xbfa748fd	-1.3069149
19	0xbf8babcf	-1.0911807
20	0xbf6dd4d5	-0.9290288
21	0xbfafa205	-1.372132
22	0xbfa08589	-1.2540752
23	0xbfbd844c	-1.4805999
24	0xbfa1735f	-1.2613333
25	0xbf90d8ef	-1.1316203
26	0xbf9f855d	-1.2462574
27	0xbf59d9f3	-0.8509819
28	0xbfb7fe2f	-1.4374446
29	0xbc2560df	-0.010093897
30	0xbfb02c28	-1.3763475
31	0xbf985413	-1.1900657
32	0xbfa97b8f	-1.3240832
33	0x3f4ad66f	0.7923345
34	0xbf810524	-1.0079694
35	0xbfb16a39	-1.3860542
36	0xbf91f4dd	-1.1402851
37	0xbfb42095	-1.4072443
38	0xbfadd2bf	-1.357994
39	0xbfa34b66	-1.2757385
40	0xbeef46c2	-0.4673367
41	0xbfac7a6a	-1.3474858
42	0xbf967d66	-1.1757019
43	0xbfa49c25	-1.2860152
44	0xbf9efa3d	-1.2420117
45	0xbf98a0b8	-1.1924047
46	0x3f55622f	0.8335294
47	0xbf62c2b4	-0.88578343
48	0xbfbeebb5	-1.4915682
49	0xbf92285f	-1.141857
50	0xbf9ef48f	-1.2418383
51	0xbfa78017	-1.3085965
52	0xbfa3093c	-1.2737193
53	0xbfc15c7c	-1.5106349
54	0xbf9987dc	-1.1994586
55	0xbf9f87ed	-1.2463356
56	0xbfab437e	-1.3379972
57	0xbf9cd211	-1.2251607
58	0xbf8ed296	-1.1158016
59	0xbf94a3e4	-1.1612515
60	0xbf9aecf9	-1.2103568
61	0xbfad34a6	-1.3531692
62	0xbf9bf88c	-1.2185225
63	0xbf8bd011	-1.0922872
64	0xbef1c0b3	-0.4721733
65	0xbf1f7db1	-0.62301165
66	0xbedfe178	-0.43726707
67	0xbef73bd8	-0.48287845
68	0xbf3ebee8	-0.7451005
69	0xbee15b12	-0.44014794
70	0xbf14edc3	-0.58175296
71	0xbf3ef8ae	-0.74598205
72	0xbf0b54b0	-0.544261
73	0xbea3d4d3	-0.3199831
74	0xbf048d49	-0.51778084
75	0xbf218569	-0.6309419
76	0xbe42ff63	-0.19042735
77	0xbf0fd2a8	-0.5618081
78	0xbf2837a2	-0.6570989
79	0xbee0d9c2	-0.43916136
80	0xbf139345	-0.5764659
81	0xbf5d07fe	-0.8634032
82	0xbf05ccba	-0.5226551
83	0xbf137a5d	-0.57608587
84	0xbf564176	-0.83693635
85	0xbec4d7a3	-0.38445768
86	0xbf35e3aa	-0.7105051
87	0xbf0cc3e2	-0.54986393
88	0xbf276e79	-0.6540294
89	0xbf498d52	-0.7873126
90	0xbf0c1bb4	-0.5472977
91	0xbf10c353	-0.5654804
92	0xbf1a10d2	-0.60181916
93	0xbec8eea7	-0.39244577
94	0xbf376d55	-0.716512
95	0xbf0bd922	-0.54628193
96	0xbf09aae0	-0.5377636
97	0x3f527bb1	0.8221999
98	0xbef4bbd7	-0.4779956
99	0xbf1d287c	-0.613899
100	0xbf078ccc	-0.52949214
101	0xbef416be	-0.476736
102	0xbf27814f	-0.65431684
103	0xbf172b3c	-0.59050345
104	0xbf1f1553	-0.62141913
105	0xbf109560	-0.5647793
106	0xbf048bfe	-0.5177611
107	0xbf12f035	-0.57397777
108	0xbf03d2d7	-0.5149359
109	0xbee20b2b	-0.44149145
110	0x3f4fee49	0.8122297
111	0xbf193ac4	-0.59855294
112	0xbeea0827	-0.45709345
113	0xbf0da0f7	-0.5532374
114	0xbf1bf698	-0.6092315
115	0xbf09c81e	-0.5382098
116	0xbf3e43b0	-0.7432203
117	0xbed6343c	-0.41836727
118	0xbec3ea53	-0.38264713
119	0xbf1a18b0	-0.6019392
120	0xbf18057c	-0.5938337
121	0xbf375630	-0.71615887
122	0xbf21c6bd	-0.63193876
123	0xbf232020	-0.63720894
124	0xbf41272e	-0.7545041
125	0xbee9e546	-0.45682734
126	0xbf396aac	-0.72428393
127	0xbf528928	-0.82240534
128	0xbd5da7b9	-0.05411503
129	0x3e1a17fe	0.15048215
130	0x3ce788f6	0.02826355
131	0xbce51ced	-0.027967894
132	0x3cc23253	0.023705637
133	0xbd8e4869	-0.06947405
134	0xbc442142	-0.01197082
135	0xbe2068d2	-0.15664986
136	0x3e05c5dc	0.13063759
137	0x3d501978	0.05080554
138	0xbc08cb8d	-0.008349312
139	0x3df23a31	0.118275054
140	0xbf1c7c31	-0.61127
141	0xbc3b78bf	-0.011442362
142	0x3cfd1459	0.030893492
143	0x3da3b225	0.07992963
144	0x3d51d3cb	0.051227372
145	0x3de28df9	0.110622354
146	0xbd64c720	-0.055853963
147	0x3db805a9	0.089854546
148	0x3d2d5526	0.042317532
149	0x3d0be74f	0.03415614
150	0x3df019c0	0.117236614
151	0x3ca13ff0	0.019683808
152	0x3d9ead01	0.077478416
153	0x3ddc17c2	0.10746719
154	0x3d9fec8e	0.07808791
155	0xbe13981f	-0.14413498
156	0x3c56cdad	0.01311056
157	0xbe8ca3f5	-0.2746884
158	0xb9ecf0b0	-0.00045192754
159	0xb892a648	-6.992795e-05
160	0xbc112481	-0.008858801
161	0xbf8a8be1	-1.0823938
162	0x3b8db4f3	0.0043245493
163	0xbdba1d98	-0.09087676
164	0x3c41cfc2	0.0118293185
165	0x3d9004a7	0.07032137
166	0x3d9e7264	0.07736662
167	0xba1d3ac0	-0.0005997829
168	0x3e2ca346	0.16859159
169	0xbd8b0312	-0.06787695
170	0x3d393946	0.045220636
171	0xbe073137	-0.13202368
172	0xbdfbe7ca	-0.1230007
173	0x3da2602d	0.079285
174	0x3f85c874	1.0451798
175	0x3db31702	0.08744623
176	0x3b723544	0.0036958018
177	0x3dff6aef	0.12471568
178	0xbd8a44e0	-0.06751418
179	0xbe2a0843	-0.16604714
180	0xbd60c129	-0.054871712
181	0x3d70bc5e	0.05877339
182	0x3dc4c0b0	0.09607065
183	0x3d6e3c14	0.058162764
184	0xbdf059d6	-0.11735885
185	0x3d7a4b29	0.061106835
186	0x3db9755e	0.09055589
187	0x3ddd1f4b	0.10796984
188	0xbd636f1d	-0.055525888
189	0xbd58b6c5	-0.052908678
190	0x3c1d6e79	0.009608858
191	0x3da7b2c7	0.08188396
192	0xbfa63809	-1.298585
193	0xbfa54947	-1.2912987
194	0xbfab9e10	-1.3407612
195	0xbfb9dc47	-1.4520348
196	0xbfa57a18	-1.2927885
197	0xbfa9681e	-1.3234899
198	0xbfb2e99b	-1.3977541
199	0xbfbecb33	-1.4905761
200	0xbfa8d380	-1.3189545
201	0xbfbaf6e9	-1.4606601
202	0xbfc27d77	-1.5194539
203	0xbfa80190	-1.3125477
204	0xbeb3049b	-0.3496445
205	0xbfb2e49c	-1.3976016
206	0xbfa63bdc	-1.2987018
207	0xbfae8091	-1.3632985
208	0xbfb6ed27	-1.4291123
209	0xbfabfa1f	-1.3435706
210	0xbf960df3	-1.1723007
211	0xbfaf221c	-1.3682284
212	0xbf6a0537	-0.9141421
213	0xbfa7949e	-1.3092229
214	0xbfaf4e2a	-1.3695729
215	0xbfb83dce	-1.4393861
216	0xbf995ab1	-1.1980802
217	0xbf82ba3f	-1.0213088
218	0xbfb03682	-1.3766634
219	0xbf8a45ea	-1.0802586
220	0xbfc4ce35	-1.5375429
221	0x3f4c1a84	0.7972796
222	0xbfb69f3c	-1.4267344
223	0xbfa737ac	-1.3063865
224	0xbfb95d34	-1.4481568
225	0xbdc248b4	-0.09486523
226	0xbf855ef5	-1.0419604
227	0xbfaf0d1a	-1.3675873
228	0xbfa0820f	-1.2539691
229	0xbfb51f93	-1.4150261
230	0xbfac6525	-1.3468367
231	0xbfb3c92f	-1.4045771
232	0xbf7b3b47	-0.98137325
233	0xbfa5fa1c	-1.2966952
234	0xbfa356a8	-1.276082
235	0xbfab88cc	-1.3401122
236	0xbf9e3aea	-1.2361729
237	0xbf8c4803	-1.0959476
238	0x3c6ac83d	0.014329967
239	0xbf613fe6	-0.87988126
240	0xbfa284bb	-1.2696756
241	0xbfad46ca	-1.3537228
242	0xbfa75dc5	-1.3075491
243	0xbf9dc0b5	-1.2324435
244	0xbf964e23	-1.1742595
245	0xbfaf8a01	-1.371399
246	0xbf9e4e96	-1.2367733
247	0xbfa6afb6	-1.3022373
248	0xbf8f913f	-1.12162
249	0xbf8c8d3e	-1.0980604
250	0xbfa80d12	-1.3128989
251	0xbfa637c1	-1.2985765
252	0xbfb5f844	-1.421639
253	0xbfa2b12a	-1.2710316
254	0xbfa7e792	-1.3117545
255	0xbf9b3741	-1.2126237
