models/ffnn.pth (torch, 2488 bytes, 3 tensors)

fc1.weight f4 [32, 3]
-0.21585064 0.24574265 0.058585465 -1.57985 0.77663535 0.14653964 0.23645845 -0.26341072
0.53317535 -0.7036626 0.07682759 0.0476933 -0.17737512 -0.15593459 0.14311993 -1.8534573
-0.04375592 -0.017111314 -0.8872811 0.07225771 0.04135835 0.9912831 -0.06647825 -0.015939476
-0.037024062 0.24000481 -0.17496745 0.5837259 0.086183146 -0.5566825 0.35428968 0.40261397
0.43017668 -0.29972106 0.022864819 -0.42284504 -0.17820317 -0.5738237 -0.019242207 0.69698477
-0.5248922 0.38106728 -0.1478518 0.16976817 -0.18232788 -0.08181063 0.10148286 0.5421895
-0.25883403 0.011626005 -0.065118074 0.7772113 0.0895934 0.005648791 -0.3117102 0.3616495
-0.13207419 0.14461614 -0.5065434 0.134474 -0.18297116 0.4557193 0.07305136 0.1933504
0.28935218 -0.057809047 -0.010097206 -0.35322106 -0.08006376 0.1973635 0.51536566 -0.14503285
0.502475 -0.55627716 -0.1754672 0.99796826 0.074665025 -0.058992285 -1.5781124 0.87282836
0.043909345 0.14322385 -0.17722222 0.45149758 0.15781845 0.4562009 0.222709 -0.46714893
-0.07370709 -0.34509507 -0.54644793 -0.04580325 0.1996299 -0.3035901 0.6139756 0.06965839
00000000: f307 5dbe f6a3 7b3e 50f7 6f3d 8638 cabf
00000010: 93d1 463f 7d0e 163e 2a22 723e c5dd 86be
00000020: 2e7e 083f 3b23 34bf c957 9d3d 0d5a 433d
00000030: d3a1 35be 51ad 1fbe 088e 123e 173e edbf
00000040: 6839 33bd 072d 8cbc db24 63bf dafb 933d
00000050: 6067 293d bbc4 7d3f c025 88bd 8193 82bc
00000060: 8ba6 17bd d2c3 753e ab2a 33be 106f 153f
00000070: ca80 b03d bf82 0ebf 7565 b53e 6b23 ce3e
00000080: 1e40 dc3e 0a75 99be 004f bb3c 257f d8be
00000090: e47a 36be 1ce6 12bf d5a1 9dbc 986d 323f
000000a0: 565f 06bf 401b c33e 7666 17be b5d7 2d3e
000000b0: 29b4 3abe 558c a7bd 3fd6 cf3d eecc 0a3f
000000c0: e585 84be 007b 3e3c a05c 85bd 52f7 463f
000000d0: bf7c b73d 7e19 b93b 7b98 9fbe 202a b93e
000000e0: 753e 07be 4116 143e d4ac 01bf 8db3 093e
000000f0: cb5c 3bbe 0a54 e93e f49b 953d a6fd 453e
00000100: f825 943e 2ec9 6cbd c06e 25bc 64d9 b4be
00000110: 78f8 a3bd a819 4a3e 01ef 033f 7e83 14be
00000120: 34a2 003f 2e68 0ebf acad 33be d97a 7f3f
00000130: fae9 983d e5a1 71bd 96ff c9bf ae71 5f3f
00000140: 49da 333d 46a9 123e be79 35be b12a e73e
00000150: 299b 213e 2a93 e93e d40d 643e 252e efbe
00000160: bef3 96bd 4db0 b0be 03e4 0bbf 309c 3bbd
00000170: c86b 4c3e 2970 9bbe 812d 1d3f 0fa9 8e3d

fc1.bias f4 [32]
0.3334477 0.41110575 -0.30142385 0.3560907 0.45639685 0.4819916 0.4680739 -0.29095846
-0.25810704 0.34695318 0.21533757 -0.055247366 -0.0017427685 0.46225175 0.11367592 -0.027923075
-0.026216626 -0.3395892 -0.43895015 0.55872697 -0.6591443 0.25777778 -0.09880653 0.26766118
-0.2646802 -0.40758398 0.90149635 -0.573984 -0.42752555 0.055898003 -0.3477264 -0.15995401
00000000: a8b9 aa3e 747c d23e 3a54 9abe 8551 b63e
00000010: d9ac e93e 9ac7 f63e 62a7 ef3e 82f8 94be
00000020: 9b26 84be d9a3 b13e 7481 5c3e 104b 62bd
00000030: 9b6d e4ba 43ac ec3e ecce e83d efbe e4bc
00000040: 40c4 d6bc a3de adbe 13be e0be bb08 0f3f
00000050: aebd 28bf 73fb 833e 145b cabd e30a 893e
00000060: 2a84 87be d9ae d0be 77c8 663f 9ef0 12bf
00000070: a1e4 dabe 4ef5 643d 3209 b2be fcca 23be

fc2.weight f4 [1, 32]
0.11038614 -1.0612096 0.08922133 -0.35489058 0.11850414 0.51541185 -0.96169555 0.76479715
-0.011148453 -0.1844783 0.06277778 0.097532526 -0.07459891 -0.17468935 0.08531231 0.15517864
0.072578266 0.40763578 0.017806556 0.08352639 0.041047156 -0.028059036 0.13881664 0.03596323
0.1484993 0.298367 0.7194744 -0.0659202 0.01849445 -0.09281911 -0.031020865 0.35574374
00000000: 2112 e23d b7d5 87bf acb9 b63d 38b4 b5be
00000010: 4cb2 f23d 08f2 033f ae31 76bf bfc9 433f
00000020: 00a8 36bc e1e7 3cbe a391 803d 22bf c73d
00000030: 50c7 98bd c4e1 32be 38b8 ae3d 26e7 1e3e
00000040: eaa3 943d a3b5 d03e 0edf 913c e20f ab3d
00000050: 1021 283d 10dc e5bc f325 0e3e 2e4e 133d
00000060: 3310 183e 8fc3 983e 792f 383f 2b01 87bd
00000070: ac81 973c f217 bebd 781f febc 0b24 b63e
