models/ffnn.pth (torch, 7146 bytes, 5 tensors)

fc1.weight f4 [32, 3]
000000 a4 c8 65 be 61 d2 e2 be 24 85 41 3e 09 ce b3 3d
       -0.2243982 -0.4430113 0.18898445 0.087795325
000010 85 8e 9e be b4 72 9a 3e a7 75 ab 3c 4d 80 7f be
       -0.3096811 0.30165637 0.020930124 -0.24951287
000020 9d 08 f7 3e 37 ee 43 be ab c6 3a be fe 2c 87 3e
       0.4824876 -0.1913384 -0.18239848 0.26401514
000030 ed 9e f8 3e 75 18 40 be 92 5c 6a 3e 38 6d ef 3e
       0.4855875 -0.1875933 0.22886875 0.46763015
000040 b8 7d bf 3e ee 28 44 3e 24 18 6a be bc bb 0c be
       0.37400603 0.19156238 -0.22860771 -0.1374349
000050 18 ff 82 3e f3 50 d2 3e 6a fe 0c 3c 76 e4 60 3c
       0.25585246 0.41077384 0.008605579 0.013726344
000060 6f 43 33 be 3c 13 31 be d6 f8 e1 bd bf 24 cd be
       -0.17506193 -0.17292494 -0.1103379 -0.40067098
000070 4a 8e e7 3d b7 0d 84 be 4c 5c 3a 3f fc 76 4e 3c
       0.11306436 -0.25791714 0.72797084 0.01260161
000080 b5 2e 5d 3d db 51 d2 be 78 10 64 3c 1e 76 5c 3e
       0.05399962 -0.41078076 0.013919942 0.21529433
000090 bf 46 31 be 09 36 c9 3e a7 c7 a3 be ff c9 41 3e
       -0.17312144 0.39299038 -0.3198826 0.18924712
0000a0 86 d2 82 be 8e 3a e1 bd 5a 58 c7 3e e5 14 8d 3e
       -0.25551242 -0.109974965 0.38934594 0.27555004
0000b0 7c c2 d8 3e d2 49 6d be 9d 99 5f 3d 8f a0 88 3e
       0.4233588 -0.23172691 0.054589856 0.26684996
0000c0 5b 77 11 bf f5 fb 56 be 91 0a e9 3c ed 9c a9 be
       -0.56822747 -0.20994551 0.028447421 -0.33127537
0000d0 3c e6 0a be 52 02 74 bd 15 2a 35 3e e8 d3 5c be
       -0.1356439 -0.059572525 0.17691834 -0.21565211
0000e0 9b ab fc bd 31 56 af 3e 0a 30 af 3d cf 83 55 be
       -0.12337419 0.34245446 0.085540846 -0.20851062
0000f0 f1 90 35 be eb 4b 54 3e 7d 02 e2 bd ff 66 e6 3e
       -0.17731072 0.20732085 -0.11035631 0.45000455
000100 4a 50 8f 3c 29 93 a3 bd 14 92 27 3b c9 24 84 3e
       0.01749434 -0.07987053 0.0025569247 0.25809315
000110 3a 94 9d 3e 47 47 05 be 94 80 e2 3e 7f 55 27 3e
       0.3077715 -0.13015471 0.44238722 0.16341208
000120 2d eb 2e be b4 db 9d be 46 28 cf be 3f ea 0e be
       -0.170819 -0.30831683 -0.40460414 -0.13956545
000130 14 e2 be be 50 36 44 3e 6a 87 2b 3e 47 c5 65 3e
       -0.3728186 0.19161344 0.16750875 0.22438537
000140 bb 3c 6e 3e 68 6f 88 bd 76 dc ad 3e 1e 1c 04 3e
       0.23265354 -0.06661874 0.3395726 0.12901351
000150 f2 17 b3 be d3 dc 16 be 26 96 89 3e 6d 74 46 3e
       -0.34979206 -0.14732675 0.26872367 0.1938035
000160 0a 97 56 3e d3 0d 69 3e aa 27 9c bd 72 3b be bd
       0.20956054 0.2275918 -0.07624753 -0.09288682
000170 c9 c4 98 bd 85 5f aa be e6 ec c9 be 8a 98 d9 be
       -0.07459409 -0.33276 -0.39438552 -0.4249919

fc1.bias f4 [32]
000000 c9 0a 15 bf 58 59 df 3e f6 c4 3c bf b9 d5 dc be
       -0.5821958 0.4362285 -0.7373804 -0.43131807
000010 8e ed ae 3e 01 d4 ba be 9b 3f a6 be ca bc f8 bd
       0.34165615 -0.3648987 -0.32470402 -0.12145384
000020 37 f0 05 3f 87 73 14 be 18 60 0d bf 00 15 2f 3f
       0.52319664 -0.14497195 -0.5522475 0.6839142
000030 ea 9e d2 3e 05 5b db be 19 f3 60 3d 5c 94 94 3d
       0.41136867 -0.4284288 0.054919336 0.0725486
000040 4c a2 83 3e 0c f0 bb 3e 2f 68 03 3f ed 2f 28 be
       0.2570976 0.3670658 0.51330847 -0.16424532
000050 e9 8a c2 3e 3a 17 a6 be 91 26 c4 bd 4f 2b ef 3e
       0.37996605 -0.32439595 -0.095776685 0.4671273
000060 11 58 34 3d d9 22 e4 be 48 ab 86 3e bc ec f1 bd
       0.0440293 -0.44557837 0.26302552 -0.118127316
000070 74 15 a8 3e 9b 49 01 3f 34 f5 0e bf ce 7b 37 3f
       0.32828867 0.5050294 -0.558429 0.71673286

fc2.weight f4 [32, 32]
000000 7e 2f 0d bd 7b 32 15 3e 84 55 42 3d e1 0e 25 be
       -0.03446912 0.14570038 0.047444835 -0.16118957
000010 f0 86 01 3e 81 7a fa bd 73 1d c8 3a c9 8b e6 bd
       0.12649131 -0.12230397 0.0015267566 -0.11257131
000020 f6 e1 b1 3d 85 a4 57 be 05 28 8e 3d 1f 7c 89 3d
       0.08685677 -0.21058853 0.06941227 0.06713127
000030 ee f1 9c 3c 42 9b 4f be e8 c1 07 be d6 75 e6 3c
       0.01915833 -0.2027407 -0.13257563 0.02813236
000040 c1 13 11 be 18 95 59 3e 4c 7d f2 bd 54 ad c2 bd
       -0.14167692 0.21248281 -0.11840305 -0.09505716
000050 e1 c1 a6 bc 43 dc 05 be f0 9d c2 3d 70 5a 13 3d
       -0.02035612 -0.13072304 0.095027804 0.03597492
000060 9f 31 ef 3d c3 71 ad bd fd a6 07 bc 8d db 1b be
       0.11679386 -0.08468964 -0.008279559 -0.1522047
000070 f2 b5 42 3e 58 bf 05 3e 0c 96 1e be 0b ad 0c 3c
       0.19014719 0.13061273 -0.15486926 0.0085861785
000080 10 ea 2f be e1 1d 1e 3e d0 51 33 bd 18 22 11 3e
       -0.17179132 0.15441085 -0.043779194 0.14173162
000090 4a ee f4 3d 87 e6 7f 3d cb bd 64 bd 1c b4 a3 bd
       0.119595125 0.062475707 -0.055845063 -0.079933375
0000a0 8c 33 8e 3e 45 7c be 3d 24 e3 8d 3d f6 e9 e3 bd
       0.27773702 0.09301046 0.06928089 -0.11128609
0000b0 b7 e2 1f 3e 3d 35 7e be 97 9e df 3d 43 be 2b bb
       0.15613829 -0.24824996 0.109189205 -0.0026205934
0000c0 d7 01 f2 3d 45 e1 96 3d 22 64 1e 3d 8c 8d 8a be
       0.11816757 0.073671855 0.038669713 -0.27061117
0000d0 8b 3a 75 3d e2 fd 9b bd 03 f3 af bc 6e e8 ce bc
       0.059870284 -0.07616784 -0.021478182 -0.025257315
0000e0 2c 1a 0b 3e 43 63 fa 3c 87 87 49 bd f4 45 a4 bd
       0.13584203 0.03056491 -0.049201515 -0.08021155
0000f0 03 53 6d bc 59 e7 cf bd 8d 95 2c be 60 2d d6 3c
       -0.014485124 -0.10151548 -0.16853924 0.026144683
000100 55 e6 af bd fd 37 e6 bd e3 8c c4 bd 90 6c 9b bd
       -0.08588854 -0.11241148 -0.095971845 -0.07589066
000110 b4 a8 3f 3d 5b 2b 14 3c 25 1d c8 3d bf 28 93 3d
       0.046791747 0.00904354 0.09771184 0.07185506
000120 ea a1 1b 3e 56 26 86 3b 40 5e 0b 3e 04 a0 61 3c
       0.15198484 0.0040939255 0.13610172 0.013771061
000130 45 ea cf bc b9 0e bf bb 9b c2 85 bc 81 0e 79 3c
       -0.025380263 -0.0058306125 -0.016328147 0.015201212
000140 aa 46 c3 bd 2b cd 0c 3e 60 6c 6e be 99 84 ad be
       -0.095349625 0.1375014 -0.2328353 -0.33890226
000150 66 07 23 3e d3 ae ea 3d 86 a3 3a 3e 1e f1 94 bd
       0.15920791 0.11459126 0.18226442 -0.07272552
000160 f4 54 0c be de 50 18 3e 03 42 16 bd 68 5d 15 be
       -0.13704282 0.14874598 -0.036684047 -0.14586413
000170 e3 27 ba 3d c2 f5 aa bd 98 48 ae 3d bf ac 10 3e
       0.09089639 -0.08347656 0.0850994 0.14128397
000180 13 ff 75 bb 5a 48 69 be 66 37 c5 bc 4b 93 f4 3d
       -0.003753607 -0.22781506 -0.024074268 0.119421564
000190 2b f8 bc bd 13 c7 3d bb 67 32 58 3e 9d df 2f be
       -0.09227022 -0.0028957769 0.21112977 -0.17175145
0001a0 14 7b 0d be 72 d3 f4 bd 01 42 f1 bd a8 84 06 be
       -0.13816482 -0.119543925 -0.11780167 -0.13136542
0001b0 d3 80 af 3d ec 59 b7 3e 9b b1 d1 3d 28 15 0d be
       0.08569493 0.35810792 0.10238954 -0.13777602
0001c0 7d 56 10 bd 0f 1b 72 3b d3 5b c5 bd b9 95 95 3e
       -0.03523873 0.0036942398 -0.09636655 0.29215792
0001d0 0f f4 f0 bc d3 37 bf 3d 26 63 67 bd b5 0a 2c be
       -0.029413251 0.093368195 -0.05649104 -0.1680096
0001e0 d0 6b 6c be 9b a3 27 3e 86 73 99 3b 1f 67 51 3e
       -0.23088002 0.16371004 0.004682961 0.20449494
0001f0 1f c8 3b be b9 f1 97 be 76 65 0b 3d 0e 3f 86 be
       -0.18338059 -0.29676607 0.034032308 -0.26219982
000200 dc fe 11 3e b2 08 81 be 19 48 9e 3c 46 15 c7 bd
       0.14257377 -0.25201946 0.019321488 -0.097208545
000210 8e c6 95 bd f4 9e 5d bd d2 20 45 3d 0c a5 a4 3d
       -0.07313262 -0.054106668 0.048127003 0.08039293
000220 8f 51 97 bc 84 c5 f4 bc a5 e6 16 be 4e 3d a1 bd
       -0.018471507 -0.029879339 -0.14736421 -0.07873021
000230 b7 c6 45 bd 67 9b 1d 3e 17 88 88 3c 9f 2a 3f bc
       -0.048285212 0.15391313 0.016666455 -0.0116678765
000240 bd ee 5e 3d 61 1d 17 be dc a1 e8 3c e4 b4 5e 3d
       0.054426897 -0.14757301 0.028397493 0.05437173
000250 22 39 29 3e 5e 84 38 3c 3e 89 7b 3e 9f a9 0a be
       0.165257 0.011262028 0.24564072 -0.13541268
000260 b3 1e 9e bd 3f 6b 68 3e c0 16 56 3d 63 43 54 3d
       -0.07720699 0.22697161 0.05226779 0.051822077
000270 a3 99 51 3c 00 47 f7 bd 2d a0 23 3e ed 5a 4f 3b
       0.0127929775 -0.12074089 0.15979071 0.003163989
000280 59 ce e6 3d e9 5d 2c bd f0 fa 95 3e 0f 95 69 3d
       0.112698264 -0.042081747 0.29293013 0.05702692
000290 d8 a1 bb bd ba 86 c7 3e 7d 62 2b be bf 32 84 3e
       -0.091617286 0.38969976 -0.16736789 0.25819966
0002a0 ff 19 3a bd 2f 97 98 be c9 3d b3 3e ae 65 a7 be
       -0.045434948 -0.29802844 0.35008076 -0.32694763
0002b0 3d 95 ac bc c8 18 b6 3e ca 0b 73 3e 7b 4f 63 be
       -0.021067256 0.35565782 0.23734966 -0.22198288
0002c0 56 cc cf be e4 15 a8 be 65 1b ac 3d 56 85 81 3e
       -0.40585583 -0.328292 0.084036626 0.2529704
0002d0 05 db d7 bd cb 61 f0 3e 81 1c 5c be d6 71 b0 be
       -0.105398215 0.4694961 -0.21495248 -0.3446185
0002e0 df 5a 95 bc 62 31 89 3a cb 31 f9 bd ee ae 3c be
       -0.018231807 0.0010466988 -0.121677004 -0.18426105
0002f0 03 46 b7 be 7c ba 29 be 6f bb 94 bd d3 ee 6e be
       -0.35795602 -0.16575044 -0.072623126 -0.23333292
000300 78 e4 16 3d d1 48 2f 3e 6c 61 a9 3d 85 13 c5 bd
       0.03683898 0.17117621 0.08270535 -0.09622864
000310 72 1e 46 3e 9b 0b a4 3e 45 c7 41 be 34 29 8d 3e
       0.19347551 0.32040104 -0.18923672 0.27570498
000320 1d 7e d7 3d 25 05 77 3c 4c 9c 8d 3e a8 ad a0 be
       0.10522101 0.01507691 0.27658308 -0.3138249
000330 f1 25 2c 3d cb 7e 1a 3e 6d c0 75 3e ef 93 08 be
       0.04202837 0.1508743 0.23999186 -0.13337682
000340 52 b5 79 be a2 83 2f be 98 c0 e9 3c 2b 9e 8a bc
       -0.24385574 -0.17140058 0.028534219 -0.016921123
000350 b3 f1 0d be e1 50 43 3e 22 83 9f 3d 42 b5 11 be
       -0.13861732 0.19073822 0.077886835 -0.142293
000360 7d e9 bf 3d 8d 9c 01 3e bd 80 b0 3c ee 2e 95 be
       0.09370706 0.12657376 0.021545762 -0.29137367
000370 fe b9 92 be ae 57 a2 3d 9d 60 16 3d 99 ca a8 bd
       -0.28657526 0.0792688 0.03671323 -0.082417674
000380 2f 0d 97 bd 67 3b b9 3d 71 7e 82 3d 14 4a 07 3e
       -0.073755614 0.09044533 0.06371773 0.13211852
000390 89 63 4a 3e fa 34 6a bd 04 0b 8a bd 90 c5 bf 3d
       0.19764532 -0.05717943 -0.06740382 0.09363854
0003a0 02 ec b4 3d ab d7 6a 3d 7e c9 53 3e dd 70 ab bb
       0.088340774 0.057334583 0.20682332 -0.00523196
0003b0 86 54 8f 3d b2 f4 73 3e 57 c5 69 3e ee 33 29 be
       0.069985434 0.23823813 0.22829185 -0.16523716
0003c0 90 69 51 bc 7b 04 d0 3d a4 c6 54 bd 3a 0a 56 bb
       -0.012781516 0.101571046 -0.05194725 -0.0032659904
0003d0 4a 94 37 3d 31 90 5e 3c 08 b4 b0 3d 82 0f e7 3d
       0.044819154 0.013584183 0.08628088 0.11282255
0003e0 ed 5d 63 3e f8 ef 0a 3b b6 99 7f bd ea 55 58 be
       0.22203799 0.0021200161 -0.06240245 -0.21126524
0003f0 9c 1e 98 3c cc 37 fa bc 7f 61 ac 3c 74 9f ef bd
       0.018569283 -0.030544184 0.021042584 -0.11700335

fc2.bias f4 [32]
000000 c0 eb 54 3e 8d 3c 7f 3e aa 98 1c 3e 36 e0 72 be
       0.20793056 0.24925442 0.15292612 -0.23718342
000010 a6 2b ec bd 7f 0e 46 be 8e b1 78 3d 51 b1 14 be
       -0.11531763 -0.19341467 0.060716204 -0.14520766
000020 0f 7e 60 bb 7d 8a cf bd e1 87 be 3e 94 d3 96 bd
       -0.0034254824 -0.101338364 0.37213042 -0.07364574
000030 ec 2c 48 be 38 dc 90 bc 54 5d 9a be 9a cd b3 bd
       -0.19548386 -0.017683133 -0.3014933 -0.0877945
000040 6f 86 6d 3c c1 e4 2c be e5 67 98 3d 87 ae 50 3e
       0.0144973835 -0.16884138 0.07441691 0.20379077
000050 30 ce 08 be 23 cb 7a 3e 5e e0 85 3e 13 98 91 3d
       -0.13359904 0.24491553 0.2614774 0.07109084
000060 d9 2d 89 3d 5f bf e6 bb f2 14 23 3d 69 7c fa bd
       0.06698198 -0.007041856 0.039814897 -0.122307606
000070 ae f3 00 3d 63 a5 e1 3d 72 a1 bf 3d d5 21 ed bc
       0.03148239 0.11017873 0.09356965 -0.028946796

fc3.weight f4 [1, 32]
000000 25 62 cb 3d 7a a3 1b 3e 58 53 99 3d 67 26 eb bd
       0.09930829 0.1519908 0.074866 -0.11481934
000010 a5 11 c3 bc 7d 03 03 3e 58 6b 80 3e 7e db 15 bd
       -0.023812125 0.127943 0.25081897 -0.036586277
000020 db 68 9b 3d ba 5c 16 3e 55 14 3d 3e c3 85 c6 bd
       0.07588359 0.1468381 0.18464787 -0.09693482
000030 6e 9b a9 bd 23 9e 20 3e 70 d0 56 be 92 ca b2 bd
       -0.08281599 0.15685324 -0.2097795 -0.087300435
000040 c0 09 f4 3d 3f fd b4 bd bf e4 ed 3c eb cd cb 3d
       0.11915922 -0.08837365 0.029039739 0.09951385
000050 9e a9 b7 bd 82 4f 60 be 71 e4 9c be 55 c8 e1 3d
       -0.08967899 -0.2190533 -0.30643037 0.110245384
000060 03 dd 97 3c b7 11 dc 3d 93 46 68 bd a0 00 58 3e
       0.018538004 0.10745566 -0.05670793 0.21093988
000070 1f 93 34 3e 38 12 f4 ba 90 94 52 be ae 17 92 bd
       0.17634247 -0.0018621152 -0.20564485 -0.07133423
